model_weights.pth (torch, 40847 bytes, 7 tensors)

encoder.0.weight f4 [16, 1, 3, 3]
0.13931848 -0.24917354 -0.17396884 0.45829406 -0.33101663 -0.20946223 -0.013303091 -0.063253485
0.39212775 0.40208974 0.32522747 0.021526493 0.07037742 -0.23514538 0.094282635 -0.1488289
-0.41503164 -0.13924433 0.34655955 0.3150194 -0.20664503 0.14955197 0.29269093 0.110111825
0.07652995 0.2708276 -0.25651145 0.18706574 0.40023905 0.09837781 0.0530486 -0.058100037
0.16489828 0.0734663 -0.18237002 -0.1164698 0.36176735 0.20278046 0.014192721 0.023660237
-0.22149968 0.10424217 0.15191193 0.068990774 0.37313896 0.08994998 0.060762625 -0.044167113
-0.40370685 -0.11612363 0.484085 -0.39031819 0.07315843 0.4122373 -0.19246532 -0.022531724
0.012487298 0.3102487 0.4240473 -0.15123047 0.10331703 0.20996338 0.31943655 -0.021228543
0.23195006 0.37012845 0.081800215 -0.028613333 0.30586764 -0.081103474 -0.21868387 -0.25685835
-0.15853736 -0.15086767 0.013957381 -0.32043457 -0.17496686 -0.1442051 -0.21875438 -0.25064334
-0.13293421 -0.32775027 0.20842293 0.32401192 0.32166973 0.30648875 0.11309755 -0.10511816
-0.15611862 0.1458702 0.23054837 -0.09918334 0.41950804 -0.05058713 -0.1791102 -0.1532573
-0.23016837 -0.28173378 0.22646262 0.11695132 0.14805314 -0.18002917 0.5270318 0.039101955
0.46376297 -0.23696347 0.45737293 0.04303879 0.038557764 0.05725345 -0.153817 -0.12614727
-0.018610468 0.4211297 0.3121941 -0.3413597 0.033616826 0.13681091 0.2747503 -0.14685524
0.19346212 0.0972793 -0.2832516 0.08664214 -0.34140474 0.26130188 0.28917345 -0.27821875
-0.20527469 0.33023086 0.2527715 0.24755847 -0.16436657 -0.17895374 0.095199384 0.15943708
-0.28883308 0.268524 0.4265505 -0.16577259 0.0056875315 -0.037830018 -0.12441876 -0.27792868
00000000: 81a9 0e3e 5927 7fbe e324 32be 85a5 ea3e
00000010: 037b a9be 447d 56be 35f5 59bc 0b8b 81bd
00000020: f8c4 c83e b5de cd3e 3784 a63e 5458 b03c
00000030: 0922 903d f3c9 70be 4117 c13d 9a66 18be
00000040: 077f d4be 1196 0ebe 4170 b13e 394a a13e
00000050: c19a 53be 2724 193e 96db 953e 4f82 e13d
00000060: bcbb 9c3d eaa9 8a3e 7855 83be 298e 3f3e
00000070: 22ec cc3e 4e7a c93d 7d49 593d 4efa 6dbd
00000080: 18db 283e 8075 963d 35bf 3abe b887 eebd
00000090: 9239 b93e aea5 4f3e 9688 683c 1dd3 c13c
000000a0: d0d0 62be eb7c d53d cd8e 1b3e 094b 8d3d
000000b0: 120c bf3e b237 b83d 3be2 783d 93e8 34bd
000000c0: aab2 cebe 3ad2 edbd fdd9 f73e c9d7 c7be
000000d0: 16d4 953d c410 d33e a115 45be 7394 b8bc
000000e0: 8697 4c3c ebd8 9e3e ba1c d93e 29dc 1abe
000000f0: e197 d33d a400 573e 308d a33e 7be7 adbc
00000100: 5184 6d3e 7a81 bd3e df86 a73d 8266 eabc
00000110: af9a 9c3e 9419 a6bd aaee 5fbe f082 83be
00000120: 9e57 22be 0e7d 1abe 80ad 643c 0010 a4be
00000130: 832a 33be 80aa 13be 2601 60be 5354 80be
00000140: e81f 08be e2ce a7be d26c 553e e4e4 a53e
00000150: e5b1 a43e 18ec 9c3e b09f e73d 3148 d7bd
00000160: 8fdd 1fbe ff5e 153e df14 6c3e a320 cbbd
00000170: c2c9 d63e 7334 4fbd aa68 37be 7bef 1cbe
00000180: 42b1 6bbe 693f 90be d1e5 673e 2c84 ef3d
00000190: 3e9b 173e 9159 38be 8eeb 063f 5f29 203d
000001a0: 5772 ed3e 8da6 72be c92c ea3e 7149 303d
000001b0: bfee 1d3d 9882 6a3d 3482 1dbe c02c 01be
000001c0: fb74 98bc 509e d73e e8d7 9f3e b3c6 aebe
000001d0: ccb1 093d 2918 0c3e 12ac 8c3e 3861 16be
000001e0: ef1a 463e 5f3a c73d 5b06 91be 6f71 b13d
000001f0: 9acc aebe 5cc9 853e 8b0e 943e b072 8ebe
00000200: 8733 52be 0514 a93e 446b 813e f87f 7d3e
00000210: b64f 28be a63f 37be e5f7 c23d 7943 233e
00000220: eee1 93be fa7b 893e d464 da3e 4ac0 29be
00000230: 795e ba3b a6f3 1abd 43cf febd ab4c 8ebe

encoder.0.bias f4 [16]
0.04929802 0.15579402 0.12540342 0.25399342 0.30047303 -0.043048672 -0.15518372 0.06541444
-0.32199523 0.038300075 0.10545912 -0.06622155 0.06339844 0.2397135 0.16623874 0.34612358
00000000: b8ec 493d 7888 1f3e c169 003e 6d0b 823e
00000010: 9ad7 993e ce53 30bd 7be8 1ebe 02f8 853d
00000020: 8fdc a4be 8ae0 1c3d f3fa d73d 2a9f 87bd
00000030: 0bd7 813d 7577 753e 7d3a 2a3e 1c37 b13e

encoder.2.weight f4 [32, 16, 3, 3]
0.14496829 0.250482 -0.34582376 -0.3554821 0.24639213 0.060306627 -0.1852819 -0.0026465408
0.5175697 -0.009033538 -0.041781813 -0.19684388 -0.20282477 0.07600421 0.46799642 0.023185832
-0.3382128 -0.36684728 0.10202935 0.086983256 0.08009649 0.11560683 0.023989959 -0.004152339
0.072720826 -0.017535826 0.060493935 -0.007218552 -0.004010191 0.03795135 0.10527584 0.042757116
0.13325746 0.043199323 0.1174361 0.011087271 0.0689168 0.062123574 -0.02595937 0.08415569
0.060789563 0.03500102 0.07712875 0.005184184 0.004915321 0.39502543 -0.08242535 -0.20466049
0.64308125 -0.31188968 -0.1769314 0.01689405 0.199868 -0.42278242 0.13273886 0.024953121
0.28079924 0.3370966 0.27638865 -0.17358275 0.12196137 0.2564843 0.1795049 0.043822195
0.10285749 0.076029815 0.06740225 0.038670734 0.052448258 0.16827057 0.019008799 -0.08508713
-0.0503883 -0.029397896 -0.06545653 -0.0744923 -0.043276142 0.031455856 0.0047974787 0.08077549
0.04573667 0.1176531 0.087513804 0.103366636 0.12439078 0.1337648 0.021489609 0.07815271
0.003794994 0.1034795 0.39008436 -0.0056154435 -0.37928316 -0.02423725 -0.059836816 0.10483757
0.17315404 -0.11969229 -0.17424358 0.0524077 0.029847553 0.15897703 0.44887105 0.42630568
0.049261373 0.03381864 0.38146317 0.045107648 -0.0886378 0.1900649 -0.17781094 0.2855827
-0.0561154 0.2101844 -0.12124724 0.05141773 0.09186341 0.07745382 0.039342985 0.13356268
-0.037754085 0.0763179 0.03234914 0.0877142 0.05248754 0.0711246 0.0446105 -0.0032325406
-0.045961943 0.060213104 0.07175991 0.10705898 -0.0072341943 0.05554632 0.061684217 0.031568915
0.11105553 -0.08560506 -0.05579999 0.17607048 0.18024161 0.086178645 -0.036655113 0.16670257
0.11576335 -0.45992377 -0.28468263 -0.34728712 0.17526013 -0.44425946 -0.35120842 -0.2497336
-0.4101203 -0.058649972 0.021630853 0.08716194 -0.19108845 -0.22710724 -0.46796635 -0.19168976
0.1303132 -0.3028296 -0.08059301 0.08011941 0.09353081 0.08038226 0.06493922 -0.032416806
0.029254703 0.07046016 0.019940933 -0.055150107 0.120481566 0.086879924 -0.054139186 -0.03197286
-0.06511136 0.11975849 0.1312287 0.07830939 0.09255679 -0.035295855 0.07504166 0.09149375
0.11476399 -0.06019677 -0.014008386 0.065797515 0.06855728 -0.02566153 -0.36745316 0.085696585
0.2755103 -0.32633564 0.02677439 -0.016130805 -0.17776577 -0.15542026 -0.09287234 -0.07675716
0.024282707 0.22262792 0.28866884 0.22315735 0.07629258 0.044376083 0.0466801 -0.037830662
0.11049914 0.026586983 -0.033304647 -0.03573905 -0.02116135 0.24475825 0.07877078 0.14080618
0.013142447 -0.02101795 0.046181213 0.028410187 0.030837229 0.012030999 -0.07327771 0.024270546
0.033948313 -0.06675577 -0.048403986 0.09772135 0.108367145 -0.042616483 0.01372282 0.04336821
0.03606889 -0.0057124924 0.13083667 -0.15875763 0.035723455 0.033022407 -0.2695029 -0.12782958
-0.1287319 -0.14010689 -0.3481077 -0.052507233 -0.09251046 0.022289747 0.2936623 0.21459086
0.09001951 0.104414485 0.22922969 0.17449842 -0.005051131 0.22118 -0.1483037 0.06788233
00000000: 9172 143e 2d3f 803e d00f b1be c001 b6be
00000010: 384e 7c3e 1504 773d 8aba 3dbe 9671 2dbb
00000020: 737f 043f 6801 14bc 6823 2bbd 7191 49be
00000030: 4cb1 4fbe 18a8 9b3d 3a9d ef3e 37f0 bd3c
00000040: 3a2a adbe 68d3 bbbe c4f4 d03d 4724 b23d
00000050: a109 a43d 46c3 ec3d 9786 c43c 5810 88bb
00000060: a8ee 943d 4ba7 8fbc 7dc8 773d 9a89 ecbb
00000070: ec67 83bb e072 1b3d dc9a d73d 1622 2f3d
00000080: a574 083e c6f1 303d 5782 f03d 63a7 353c
00000090: 4024 8d3d 4a75 7e3d bfa8 d4bc d259 ac3d
000000a0: 7afe 783d 3b5d 0f3d aef5 9d3d 16e0 a93b
000000b0: b310 a13b c640 ca3e 9fce a8bd 8592 51be
000000c0: f9a0 243f 01b0 9fbe 812d 35be 6465 8a3c
000000d0: 32aa 4c3e f076 d8be b2ec 073e 7d6a cc3c
000000e0: ebc4 8f3e ed97 ac3e d082 8d3e adbf 31be
000000f0: e2c6 f93d e951 833e 22d0 373e e77e 333d
00000100: f3a6 d23d 85b5 9b3d 310a 8a3d 3465 1e3d
00000110: fcd3 563d 1f4f 2c3e 57b8 9b3c 2942 aebd
00000120: f663 4ebd dbd3 f0bc 130e 86bd 6b8f 98bd
00000130: 5342 31bd dbd7 003d 2b34 9d3b 9f6d a53d
00000140: 6056 3b3d 1cf4 f03d 703a b33d e3b1 d33d
00000150: 98c0 fe3d a4f9 083e fa0a b03c 870e a03d
00000160: 6fb5 783b 0fed d33d 23b9 c73e c101 b8bb
00000170: 6731 c2be 338d c6bc 7317 75bd 14b5 d63d
00000180: 4b4f 313e 3b21 f5bd e96c 32be 75a9 563d
00000190: db82 f43c e0ca 223e 6dd2 e53e bd44 da3e
000001a0: 4bc6 493d 6a85 0a3d 244f c33e ccc2 383d
000001b0: bc87 b5bd 60a0 423e 1214 36be e537 923e
000001c0: 43d9 65bd 943a 573e 7950 f8bd 669b 523d
000001d0: e222 bc3d 1ca0 9e3d 1c26 213d a8c4 083e
000001e0: 07a4 1abd 8f4c 9c3d 8880 043d 81a3 b33d
000001f0: 2dfd 563d c6a9 913d 80b9 363d 08d9 53bb
00000200: 9742 3cbd 04a2 763d dcf6 923d bd41 db3d
00000210: d20c edbb 8a84 633d 97a8 7c3d 684e 013d
00000220: 1571 e33d b551 afbd 888e 64bd d24b 343e
00000230: 4291 383e 6e7e b03d ac23 16bd 14b4 2a3e
00000240: 5615 ed3d 217b ebbe ecc1 91be 9ecf b1be
00000250: 6477 333e fa75 e3be 97d1 b3be 2aba 7fbe
00000260: 4afb d1be f43a 70bd 3033 b13c f681 b23d
00000270: b1ac 43be cd8e 68be 4999 efbe 524a 44be
00000280: d370 053e 7b0c 9bbe f30d a5bd a515 a43d
00000290: 158d bf3d 749f a43d dbfe 843d 7cc7 04bd
000002a0: 8fa7 ef3c 6b4d 903d 2b5b a33c 14e5 61bd
000002b0: 0abf f63d 1aee b13d 0dc1 5dbd f9f5 02bd
000002c0: 1b59 85bd f043 f53d d160 063e ac60 a03d
000002d0: 6a8e bd3d 6392 10bd 71af 993d 1361 bb3d
000002e0: 6209 eb3d e390 76bd 6e83 65bc d9c0 863d
000002f0: c267 8c3d 2138 d2bc d222 bcbe b181 af3d
00000300: b00f 8d3e 7715 a7be f755 db3c c024 84bc
00000310: 3b08 36be 7d26 1fbe da33 bebd dc32 9dbd
00000320: 87ec c63c 93f8 633e 67cc 933e 5c83 643e
00000330: 493f 9c3d b2c3 353d a233 3f3d 53f4 1abd
00000340: 604d e23d f2cc d93c 746a 08bd 1c63 12bd
00000350: 915a adbc e8a1 7a3e 9352 a13d 7f2f 103e
00000360: 6b53 573c d62d acbc 8328 3d3d 7bbc e83c
00000370: 5b9e fc3c ab1d 453c a012 96bd 06d3 c63c
00000380: 630d 0b3d 40b7 88bd 4243 46bd 2222 c83d
00000390: 98ef dd3d 9f8e 2ebd aed5 603c dda2 313d
000003a0: f9bc 133d dc2f bbbb 0cfa 053e 5c91 22be
000003b0: c252 123d 8142 073d 49fc 89be c2e5 02be
000003c0: 4cd2 03be 2e78 0fbe 2c3b b2be d311 57bd
000003d0: 2076 bdbd fd98 b63c e85a 963e b5bd 5b3e
000003e0: 265c b83d 43d7 d53d 30bb 6a3e b7af 323e
000003f0: f583 a5bb 037d 623e eddc 17be e405 8b3d

encoder.2.bias f4 [32]
0.0070748227 0.11011282 0.12867191 0.06164837 -0.08002907 0.08744078 0.10450505 0.021350937
0.01219474 -0.0034496158 0.06102985 0.028929438 0.0038339216 0.1124274 0.051785875 0.06500667
0.07849201 -0.021205937 -0.004729091 0.010486822 0.13782975 0.04277352 0.07828092 0.04156815
-0.048675682 0.05213388 0.027782625 0.022760537 0.06457791 -0.008363118 -0.048232738 -0.03213088
00000000: ead3 e73b d582 e13d 92c2 033e 0083 7c3d
00000010: 48e6 a3bd 2714 b33d be06 d63d 29e8 ae3c
00000020: 72cc 473c f312 62bb 70fa 793d 6efd ec3c
00000030: 8842 7b3b 5640 e63d 6d1d 543d 3822 853d
00000040: 6bc0 a03d 13b8 adbc 7ef6 9abb ebd0 2b3c
00000050: 3e23 0d3e 4933 2f3d bf51 a03d 5d43 2a3d
00000060: 2760 47bd 568a 553d 6398 e33c 4e74 ba3c
00000070: 6c41 843d 7605 09bc b18f 45bd ab9b 03bd

decoder.0.weight f4 [32, 16, 3, 3]
0.005275578 0.003157606 0.08499305 -0.07794985 -0.09125117 -0.030203445 0.016456693 0.055465713
0.040032137 0.05808199 -0.094750166 0.01519776 0.056651086 -0.06475568 -0.05319735 -0.041630827
0.010499628 -0.025260864 -0.0005850208 0.10187471 -0.012734553 0.027824061 0.17688242 0.030663498
0.0749332 0.05472313 0.020150986 0.04224476 0.008987211 0.09509797 0.08902607 0.02813669
-0.044819836 0.09097417 -0.0465889 0.08039288 0.064666554 -0.062121026 -0.056008954 -0.004278941
0.11732548 0.13864543 0.056907482 -0.05253823 0.048290387 0.039598633 0.034861717 0.052697975
0.19401376 -0.08822991 0.06431547 0.028877946 -0.0108907195 -0.024186049 0.05677311 0.007651173
0.0585961 -0.0829912 0.09314677 0.16254668 0.11184044 0.016407441 0.051465835 0.072216965
0.109633155 0.09575488 -0.03111092 0.053197596 0.16232282 -0.0012888549 0.02769137 0.112067856
0.05125228 -0.055363514 -0.026797894 0.09922472 0.118059225 0.051987793 0.11302548 -0.044239473
-0.12659526 -0.038652718 0.108144484 -0.066180244 0.107642315 0.036942843 -0.13986237 0.107602924
0.09667752 0.117829606 0.09989379 -0.03138588 -0.07099929 0.08542721 0.11503875 -0.061249066
-0.08267035 0.13404882 -0.045431007 0.02677864 0.10024206 0.052973278 -0.06469366 0.011311693
-0.046145134 -0.047939345 0.14997911 0.06718021 0.0121637555 -0.02831871 -0.06324308 0.012755669
0.0023721205 -0.060058303 -0.015815774 0.041638542 0.012385784 -0.03240671 0.015293568 -0.055575654
0.021689303 0.01425318 0.09509013 0.017074138 0.08405149 -0.005343042 -0.006541579 0.06365941
0.058552682 0.09713431 0.027882438 0.014049444 -0.037559237 0.13243847 -0.0015953312 -0.05205834
-0.032876387 -0.009695338 -0.013063216 -0.08880191 -0.02580359 0.03410371 0.09163721 0.02186183
0.060663283 0.060211297 0.057940397 -0.0488262 0.002723058 -0.06469041 -0.08157774 0.15009394
0.14002511 0.017402267 0.08322511 -0.010320263 0.020662189 -0.06924159 -0.010107106 -0.06441358
-0.061551474 0.07704681 0.031548023 0.011521891 -0.057357505 0.10337319 0.18931319 0.014672394
0.043233592 -0.021492997 -0.058309507 0.0078894105 -0.005494602 -0.021678414 0.15078226 0.013965141
0.11833031 0.19401926 0.040993463 0.10739434 0.09794506 -0.0050215623 0.13454284 0.030622905
-0.13244392 0.04649323 0.043934908 0.06372476 -0.02522124 -0.051552847 0.054025795 0.013976176
0.15589415 0.031756263 0.15016824 0.1719672 -0.020710569 0.12368805 0.029106075 -0.08324755
0.044656772 -0.22151573 0.0035737853 -0.07948005 -0.081290916 -0.028869752 0.022477973 0.06593371
0.13401695 0.093452655 -0.10264718 -0.048606604 0.07285637 -0.034864847 -0.05312099 -0.036472786
-0.0641725 0.035198957 0.21405801 0.22892301 0.002781322 0.11708097 0.24923721 0.02040213
0.05350955 -0.018620305 -0.023179544 -0.014765795 0.198171 0.05205804 0.08874097 0.1124169
0.034685273 0.168786 0.0076978193 -0.079674736 0.06116778 0.064690225 0.16392952 -0.12846386
0.02730513 0.07228684 -0.10006262 0.15086666 -0.073602594 0.07918945 -0.00067683065 -0.02935654
-0.08069756 -0.08109348 -0.17528927 -0.083100766 0.023299888 -0.07142992 -0.030468395 0.10127063
00000000: c1de ac3b d7ef 4e3b d610 ae3d 2ca4 9fbd
00000010: e5e1 babd 376d f7bc 30d0 863c 0430 633d
00000020: bdf8 233d 61e7 6d3d 600c c2bd 0700 793c
00000030: f80a 683d a09e 84bd 77e5 59bd 1685 2abd
00000040: a206 2c3c dfef cebc 155c 19ba b0a3 d03d
00000050: 96a4 50bc 49ef e33c aa20 353e 0432 fb3c
00000060: 9476 993d 5c25 603d ae13 a53c d708 2d3d
00000070: 183f 133c b9c2 c23d 4d53 b63d ea7e e63c
00000080: 0195 37bd aa50 ba3d 01d4 3ebd 06a5 a43d
00000090: e66f 843d 9e72 7ebd a569 65bd 5c36 8cbb
000000a0: 5748 f03d 11f9 0d3e d217 693d 5432 57bd
000000b0: 24cc 453d 2d32 223d 29cb 0e3d d5d9 573d
000000c0: 8bab 463e e2b1 b4bd d4b7 833d 7191 ec3c
000000d0: fd6e 32bc d221 c6bc ec8a 683d b1b6 fa3b
000000e0: 7702 703d 4af7 a9bd bcc3 be3d a372 263e
000000f0: 9a0c e53d e668 863c d7cd 523d 7de6 933d
00000100: 5987 e03d 221b c43d 54dc febc b9e5 593d
00000110: f437 263e cbee a8ba 03d9 e23c d583 e53d
00000120: e9ed 513d dac4 62bd 4287 dbbc 5436 cb3d
00000130: 09c9 f13d 27f1 543d e779 e73d 7334 35bd
00000140: 30a2 01be 5052 1ebd db7a dd3d 8289 87bd
00000150: 9373 dc3d 6151 173d 1538 0fbe ec5e dc3d
00000160: ddfe c53d a650 f13d 1e95 cc3d 7b8e 00bd
00000170: 1368 91bd 76f4 ae3d 7099 eb3d 4de0 7abd
00000180: 134f a9bd 1844 093e dd15 3abd e15e db3c
00000190: b64b cd3d 82fa 583d 1c7e 84bd ae54 393c
000001a0: ae02 3dbd 0c5c 44bd 2094 193e c795 893d
000001b0: 7d4a 473c a4fc e7bc 9785 81bd 27fd 503c
000001c0: 9475 1b3b b2ff 75bd 1590 81bc 2d8d 2a3d
000001d0: beed 4a3c e6bc 04bd e091 7a3c 4ca3 63bd
000001e0: c4ad b13c 2b86 693c 9dbe c23d 10df 8b3c
000001f0: 3023 ac3d af14 afbb be5a d6bb dd5f 823d
00000200: f0d4 6f3d 5aee c63d b669 e43c a42f 663c
00000210: b7d7 19bd f39d 073e 6f1a d1ba 203b 55bd
00000220: 64a9 06bd 32d9 1ebc 1907 56bc c7dd b5bd
00000230: 0d62 d3bc 55b0 0b3d 4aac bb3d 9517 b33c
00000240: 107a 783d 1fa0 763d e952 6d3d fbfd 47bd
00000250: 5575 323b 687c 84bd 3b12 a7bd 3ab2 193e
00000260: be62 0f3e 338f 8e3c ed71 aa3d 5216 29bc
00000270: c043 a93c 89ce 8dbd 4698 25bc 44eb 83bd
00000280: 661d 7cbd b8ca 9d3d 8038 013d 50c6 3c3c
00000290: b4ef 6abd 53b5 d33d 51db 413e 7b64 703c
000002a0: b515 313d 1512 b0bc f3d5 6ebd 9642 013c
000002b0: 100c b4bb ee96 b1bc aa66 1a3e 0cce 643c
000002c0: 2957 f23d fcac 463e c3e8 273d 90f1 db3d
000002d0: 6b97 c83d eb8b a4bb 99c5 093e e3dc fa3c
000002e0: 619f 07be af6f 3e3d 17f5 333d 2182 823d
000002f0: c69c cebc 1429 53bd 274a 5d3d 55fc 643c
00000300: b7a2 1f3e db12 023d b4c5 193e 2b18 303e
00000310: 36a9 a9bc 2950 fd3d dd6f ee3c b17d aabd
00000320: 05ea 363d 05d5 62be 2b36 6a3b 70c6 a2bd
00000330: da7b a6bd 4280 ecbc ba23 b83c 4108 873d
00000340: bd3b 093e 1b64 bf3d af38 d2bd b817 47bd
00000350: b835 953d 71ce 0ebd 6595 59bd 7d64 15bd
00000360: df6c 83bd c82c 103d 0632 5b3e cb6a 6a3e
00000370: d746 363b 26c8 ef3d 0a38 7f3e 5e22 a73c
00000380: d42c 5b3d 9c89 98bc 07e3 bdbc 3cec 71bc
00000390: 57ed 4a3e d03a 553d d3bd b53d d53a e63d
000003a0: 2512 0e3d 3dd6 2c3e fd3d fc3b 822c a3bd
000003b0: 118b 7a3d 4f7c 843d 24dd 273e 088c 03be
000003c0: 02af df3c 1f0b 943d a2ed ccbd ca7c 1a3e
000003d0: f5bc 96bd 142e a23d 566d 31ba 207d f0bc
000003e0: c344 a5bd 5714 a6bd 087f 33be bc30 aabd
000003f0: 68df be3c da49 92bd db98 f9bc fa66 cf3d

decoder.0.bias f4 [16]
0.023943234 0.010821464 0.026261868 -0.03283625 -0.05525608 0.044725604 -0.05360263 -0.06673313
0.10299988 0.030434312 0.058976848 -0.011405547 -0.019028705 0.003227474 0.06793014 0.045630086
00000000: 9a24 c43c 824c 313c 2123 d73c 4e7f 06bd
00000010: 3354 62bd 3232 373d 6e8e 5bbd 61ab 88bd
00000020: 9af1 d23d 6151 f93c b591 713d 55de 3abc
00000030: 16e2 9bbc 0784 533b f51e 8b3d 9de6 3a3d

decoder.2.weight f4 [16, 1, 3, 3]
0.47679427 0.4347326 -0.26531047 -0.056385476 0.051732823 -0.33511773 0.1414811 0.04944151
-0.22387363 -0.39742237 -0.22968297 -0.43862677 0.27233222 0.6497269 -0.20481789 0.38117832
0.16767795 -0.26429343 0.032961722 -0.13561969 0.057023272 0.42941496 0.29124865 -0.19949387
0.039939754 -0.017755814 0.1748765 -0.2615455 0.022251373 0.35006258 0.20804586 0.20755194
0.1257548 -0.24302462 0.38541052 0.18939123 -0.0806387 -0.49587116 0.3684482 -0.18880446
-0.7674064 0.082896896 -0.22408554 -0.6412084 -0.012286776 -0.17062621 0.34648204 0.024612892
-0.2675591 0.2503529 0.36484504 0.31013912 -0.06933117 -0.06901344 -0.07155764 0.554994
0.21134003 -0.048174586 -0.039348345 -0.4576374 -0.40971023 -0.2521059 -0.3947328 0.01335963
-0.3390109 -0.031726547 -0.18962349 -0.4603176 -0.31032 -0.097190194 -0.37741968 -0.33115536
-0.06944358 0.39113292 0.10467002 -0.04580685 0.44656762 0.11706325 -0.20805448 -0.06522572
0.025036404 -0.26316673 -0.08365325 0.32999265 -0.10666671 0.287253 0.313956 0.14582469
0.4314445 -0.0066443696 0.31267127 -0.17781034 -0.08692381 0.35690406 0.1440607 0.39764228
-0.1631491 0.28921935 -0.14890023 -0.39996493 -0.22759476 -0.13906097 -0.6227576 -0.37277856
0.1614208 -0.06841129 0.17792897 0.504398 0.20863539 0.11897255 0.07587378 -0.2631614
-0.047670268 0.07777689 0.37272477 0.036576785 0.37809184 -0.6471095 -0.37392044 0.15497638
-0.6740981 -0.21527985 0.18379377 -0.51132613 -0.2451128 0.10195502 0.20034143 0.39879644
0.017150452 0.0648157 0.19589253 0.36483866 -0.06290831 -0.117828794 0.20774503 0.29201147
-0.1904495 -0.1626798 0.12281338 0.0025672305 0.20163283 0.18982993 -0.25135836 -0.2647864
00000000: 611e f43e 4595 de3e c6d6 87be 75f4 66bd
00000010: cce5 533d 8d94 abbe 6ce0 103e 2e83 4a3d
00000020: 213f 65be f27a cbbe 0332 6bbe b093 e0be
00000030: 216f 8b3e 8154 263f c8bb 51be ce29 c33e
00000040: c5b3 2b3e 7851 87be df02 073d e3df 0abe
00000050: 3c91 693d 47dc db3e 8b1e 953e 1f48 4cbe
00000060: de97 233d a474 91bc d312 333e 4be9 85be
00000070: 8348 b63c 673b b33e f909 553e 7f88 543e
00000080: dec5 003e 72db 78be 8754 c53e c6ef 413e
00000090: e725 a5bd d3e2 fdbe 3ea5 bc3e f555 41be
000000a0: bf74 44bf d9c5 a93d ae76 65be 3c26 24bf
000000b0: 794e 49bc a3b8 2ebe 1866 b13e faa0 c93c
000000c0: 82fd 88be 412e 803e f8cc ba3e 8eca 9e3e
000000d0: 80fd 8dbd eb56 8dbd d08c 92bd 1614 0e3f
000000e0: 8569 583e b752 45bd bb2b 21bd 734f eabe
000000f0: 8ac5 d1be 0614 81be 6b1a cabe 59e2 5a3c
00000100: d692 adbe b2f3 01bd a92c 42be c0ae ebbe
00000110: 43e2 9ebe a70b c7bd 273d c1be 328d a9be
00000120: 7038 8ebd 9342 c83e 3c5d d63d f79f 3bbd
00000130: 83a4 e43e dbbe ef3d 3c0c 55be 1095 85bd
00000140: 2519 cd3c cabd 86be 6552 abbd ccf4 a83e
00000150: 1374 dabd d312 933e d7be a03e 1153 153e
00000160: 4be6 dc3e 03b9 d9bb 7316 a03e ea13 36be
00000170: 1c05 b2bd 21bc b63e a684 133e c597 cb3e
00000180: 8f10 27be 8f14 943e 4d79 18be 34c8 ccbe
00000190: 9a0e 69be 0066 0ebe 0b6d 1fbf d5dc bebe
000001a0: 7f4b 253e 381b 8cbd 0333 363e 3a20 013f
000001b0: 84a4 553e e1a7 f33d b663 9b3d 17bd 86be
000001c0: e641 43bd 7d49 9f3d c8d5 be3e 8ad1 153d
000001d0: 4195 c13e f8a8 25bf 8072 bfbe 21b2 1e3e
000001e0: b191 2cbf 5272 5cbe 6f34 3c3e 45e6 02bf
000001f0: dafe 7abe cbcd d03d 4e26 4d3e 0c2f cc3e
00000200: 1b7f 8c3c 18be 843d 0d98 483e 22cc ba3e
00000210: 12d6 80bd 3950 f1bd 1dbb 543e 8782 953e
00000220: 3205 43be 8995 26be 9585 fb3d fb3e 283b
00000230: d678 4e3e c762 423e 0bb2 80be 1592 87be
